examples/ex6/trained_model.onnx (onnx, 19108 bytes, 5 tensors)

sequential/dense_2/MatMul/ReadVariableOp:0 f4 [64, 1]
00000000: 9357 5b3e e62a 943e 8a79 90be d000 3abe
00000010: d89b febd 382f 36be c0c1 15bc 485c 273d
00000020: ce39 8a3e fd26 9f3b 1a14 10be 551a 763e
00000030: a0c2 43be 6c5c 943e 8425 63bd 1d10 afbd
00000040: e769 753e 28d8 883e e8c0 7d3d 2c52 943e
00000050: d7b5 7fbe 50da babd 8556 85be 4054 bd3d
00000060: b9e0 09be 232b 93be 5e1f 92be 5803 ee3d
00000070: b8f4 423d 7222 e5bd b922 093e 5a6a 8f3e
00000080: bcfa 523e 2b7e 03bb a7d5 933e bb1c 66be
00000090: c6b5 a63e 0071 0b3d cb37 14be d13b 5fbe
000000a0: 5e6a 073e 1a83 36be 3972 75be 282f 9d3e
000000b0: 6f6c 03be f6a6 073e 84d2 ad3d 68cd 49bd
000000c0: fd13 3abe 043d 2bbe cb1f 703e 5dfc 5abe
000000d0: d752 9d3e b293 86be 920a 92bd 6267 8bbe
000000e0: 2023 373e d182 813e c086 193e 5c36 a33d
000000f0: 98e7 4b3e a132 8a3d 5917 d7bd 913d 973c
0.21420126 0.2893898 -0.28217727 -0.18164372 -0.124320686 -0.1779145 -0.009140432 0.04085949
0.26997226 0.0048569427 -0.14070168 0.24033482 -0.19117212 0.28976762 -0.0554557 -0.08547995
0.2396618 0.26727414 0.061951548 0.28968942 -0.2497171 -0.09123671 -0.26042572 0.09244585
-0.13464631 -0.28743848 -0.28539556 0.116217315 0.047596663 -0.111882105 0.13392152 0.28010827
0.2060346 -0.0020064216 0.2887394 -0.22471897 0.32560557 0.034043312 -0.14474408 -0.21800162
0.1322417 -0.17823449 -0.23969354 0.3070004 -0.12834333 0.13247284 0.08487418 -0.049268156
-0.18171687 -0.16722494 0.23449628 -0.21385331 0.30727264 -0.26284558 -0.071309224 -0.27227312
0.17884493 0.25295117 0.1499281 0.079693526 0.19912565 0.06747938 -0.105025 0.018461974

sequential/dense_1/MatMul/ReadVariableOp:0 f4 [64, 64]
00000000: 708f b3bd 0f97 583e 4375 153e cfdf 273e
00000010: 497a 073e 6694 dc3d 7f16 0d3e 34b2 203d
00000020: 7417 113d e59c fdbd d548 5d3e 5052 68bc
00000030: 5031 c1bc fa7b 3abe d2bf 15be ff1f 103e
00000040: 7068 e03c 5da8 5d3e 7b1d 1a3e d388 4bbe
00000050: a5d3 083e 1488 f4bd 5fd1 5b3e f624 aa3d
00000060: 3422 93bd 2cba a6bd 7347 14be 0d89 243e
00000070: 2a81 863d 1cec 56be 17d8 483e 2f3b 573e
00000080: 0aa0 4abe 6a2f f13d 77ff dfbd 164e 49be
00000090: 9c53 743d ffec 0c3e c9dd 3bbe 5bff 483e
000000a0: 4722 023e bc30 1abe 0516 5a3e 8af1 803d
000000b0: e083 3abd ab92 4a3e 7b3e 4d3e bca2 1cbe
000000c0: 7703 cabd d4be 1e3d f500 5b3e b4cd 59be
000000d0: 3be2 ccbd 3b01 263e 6544 d3bd 7250 a8bd
000000e0: 78df 88bd befc 06be f29f bdbd f692 d3bd
000000f0: 5862 58bd fe6d b03d 2225 ba3d 758a e7bd
00000100: 1d67 933d 6f1b a8bc 40f9 8ebc 4aec 5ebe
00000110: c77c 733d 4981 d83d d098 cdbc 22b1 f13d
00000120: 72d4 a03d 0095 93bc 8a60 e93d ac55 1abd
00000130: 9511 53be f328 d13d cec5 c03d 069f 333e
00000140: c778 5c3e e46e 383d a30f 273e 4c61 213e
00000150: f676 c8bd 5dae 2fbe 72a4 bc3d edfe 5a3e
00000160: 78cc 2bbe b2c9 d1bc 0748 a63d 9928 5a3e
00000170: e773 31be d372 0e3e 6d4a 0b3d 7d8e d7bd
00000180: ff6b 0c3e c124 8dbd dad0 293e 9bd5 393e
00000190: 2b16 5e3e 64d6 41bd d26b b03d a3cd f63d
000001a0: f9ee 263e 70cd 9b3c 8bff 193e 6fc6 13bd
000001b0: 7435 163e 8841 33be e03f 07be 3ce4 bcbd
000001c0: 5717 4f3d e64f a53d 069b 4a3e 0074 14bc
000001d0: 5408 403e b6a4 2c3d e2b0 3cbe 1a04 d53d
000001e0: 08d0 9b3c b87b 4c3e 7428 15be 30db 463e
000001f0: d475 f83d 8f30 c93d 95c0 dfbc 1887 e03d
00000200: 0ae4 73bd cad6 31be 4ed9 d2bd ae83 61bd
00000210: 90be 8dbd e826 963d 7e7b 14be b02a 15bd
00000220: 607a e8bd 5ab5 223d bea7 2dbe 80ab 213d
00000230: 70d5 37bd 7208 28be b593 3c3e 29d9 c93d
00000240: c195 693e 40c9 d1bc 4029 793b 8789 283e
00000250: 402f af3d 22ca 93bd ac0c e5bd 01a6 213d
00000260: 1df8 15be b946 27bd 3520 f73d 2f50 debd
00000270: 865c a03d 59c6 2abe 1df8 c4bd da38 41be
00000280: 727c 21bd b9dc 9e3c bb38 f23d 94e4 5c3d
00000290: efef 323e 8ab0 993d 3d88 053e b2d1 ae3b
000002a0: 8bda 39be 0f71 c5bd 777d 2bbe d0ed 663d
000002b0: f2f5 be3d db2e 10bc aad3 2d3d b8b4 55bd
000002c0: efcf 573d 29df 053e fdc8 223e 2f53 333e
000002d0: e62c a23c fe4f 0bbe 99b8 d43d 7e0e 84bd
000002e0: 7ca6 47bd 1321 363e a7a0 293e 6a80 14be
000002f0: 7121 cf3d 852b 28bd b92a 3bbd 6100 643d
00000300: 1abf 73bd 8e4d 7d3e abef 3c3e 797e f53d
00000310: fbca aebd 6bb0 62be 68c0 07bd c8d5 69bd
00000320: dd5c 25be 4219 943d 8e9d edbd 70ba 583c
00000330: bf72 fbbd 493c 1c3c 164d d33d 4415 1ebe
00000340: abcf 2d3e e37a e5bd 6e85 f43d d730 263e
00000350: 00a4 f8bd e145 4a3e ef4c 293d b8f3 883d
00000360: b079 eb3d 9f1e 383e 8401 673d 209f c43c
00000370: 9846 d73c bd0f 0d3e 1c83 81bd cb30 16be
00000380: 042a 1a3e 7bd9 303e 1b6a 30be 99d8 033e
00000390: 7e86 603d d276 8bbd 4a0b 8fbd f5e7 973d
000003a0: a0e7 cd3d e861 aabc 555d 243e cf3e 053e
000003b0: 0de7 8bbd 1b5a 8e3d 4e41 693e 9bf9 4f3e
000003c0: dbd2 c43d 641b e33d c6c4 093e 506a 6abd
000003d0: dfaf 50bd 7221 20bd aa07 173e 809c c23a
000003e0: 635e 503e f33c 0bbe 6d92 3dbe ef56 383e
000003f0: 1d2c 273e f643 e23d 4395 32be 8493 003d
-0.08767593 0.21151374 0.14595513 0.1639397 0.13230242 0.10770492 0.13778113 0.039232448
0.035422757 -0.12383441 0.21609814 -0.014179781 -0.023583084 -0.18211356 -0.14623955 0.14074706
0.02739355 0.21646257 0.15050308 -0.19876413 0.13361986 -0.11940017 0.21466587 0.08307831
-0.07184258 -0.08140978 -0.1448038 0.16067906 0.06567605 -0.20988506 0.19613682 0.2101867
-0.19787613 0.11776622 -0.10937398 -0.19658694 0.05965005 0.13762282 -0.18346323 0.1962866
0.12708388 -0.15057653 0.21297462 0.0629607 -0.045535922 0.19782512 0.20043366 -0.15296453
-0.09863942 0.038756207 0.21387084 -0.21269876 -0.100040875 0.16211407 -0.103157796 -0.08218469
-0.06683248 -0.13182351 -0.09259023 -0.10330765 -0.052828163 0.08614729 0.09089114 -0.113057055
0.07197402 -0.020520894 -0.017452836 -0.21769825 0.05944517 0.10571534 -0.02509728 0.118013635
0.07853021 -0.018015385 0.113953665 -0.03767936 -0.20612176 0.102128886 0.09412728 0.17541131
0.21530448 0.04502763 0.16314559 0.15759772 -0.09788315 -0.17156358 0.09211053 0.21386309
-0.16777217 -0.025608871 0.08119207 0.2130455 -0.1732937 0.1391099 0.034006525 -0.10525224
0.13713072 -0.06891776 0.16583577 0.1814789 0.21688144 -0.0473236 0.08614315 0.12050941
0.16302098 0.019018859 0.15038888 -0.036077913 0.14668828 -0.17505467 -0.1320796 -0.0922322
0.050559368 0.0807188 0.19785699 -0.00906086 0.18753177 0.042149268 -0.1842685 0.10401173
0.019020095 0.1996907 -0.14566213 0.19419551 0.12131849 0.09823715 -0.02731351 0.10963267
-0.059543647 -0.17367092 -0.10295354 -0.05505722 -0.069211125 0.073316395 -0.14500234 -0.036417663
-0.11351466 0.03972373 -0.1695852 0.039470196 -0.044881284 -0.16409472 0.18415721 0.09855873
0.22811033 -0.025608659 0.0038018972 0.16458713 0.08553934 -0.07216288 -0.111840576 0.039464954
-0.14645429 -0.04083893 0.1206669 -0.108551376 0.078301474 -0.16677226 -0.09617636 -0.18869343
-0.03942532 0.019392358 0.11827227 0.053928927 0.1747434 0.07504375 0.13040252 0.005335056
-0.18149774 -0.09640705 -0.1674708 0.05637914 0.09324254 -0.008800234 0.042438187 -0.0521743
0.052688535 0.1307341 0.15896983 0.17512201 0.0197968 -0.13604733 0.10386772 -0.06448077
-0.048742756 0.17786054 0.1656519 -0.14502111 0.101138 -0.04105713 -0.04569504 0.055664424
-0.05950842 0.24736616 0.18450801 0.11987013 -0.08534809 -0.2213761 -0.033142477 -0.057088643
-0.16148706 0.0723138 -0.11602317 0.013228044 -0.122777455 0.0095358575 0.10317437 -0.154378
0.1697375 -0.112050794 0.11939512 0.16229568 -0.121406555 0.19753219 0.041333135 0.06687111
0.114978194 0.17980431 0.05639793 0.024001658 0.026278779 0.13775535 -0.06323835 -0.1466705
0.1505509 0.17270462 -0.17227976 0.12875594 0.05481576 -0.068097726 -0.06984575 0.07417289
0.100539446 -0.020798638 0.16051228 0.13012241 -0.06831179 0.0695078 0.22778818 0.2031006
0.0961053 0.11089209 0.1345397 -0.057230294 -0.050948974 -0.039094396 0.14749017 0.0014847666
0.20348506 -0.13597469 -0.18512888 0.18001913 0.16325422 0.11048119 -0.17439751 0.031390682

sequential/dense_1/BiasAdd/ReadVariableOp:0 f4 [64]
00000000: fc67 cc3c eabb 75bc 0000 0000 fbf3 ccbc
00000010: 3435 ebbc cd8f c7bc 0000 0000 0000 0000
00000020: 0000 0000 17e3 04bc 5cd1 40bc 4cd7 c43c
00000030: 0000 0000 a6d8 c43c 0000 0000 74da 36bc
00000040: 1354 a43c 0000 0000 0000 0000 b442 c53c
00000050: c3a4 a7bb 0000 0000 1860 c7bc 955a c13c
00000060: 1521 a9bb 30ee 2dbc a0e1 8dbc 0000 0000
00000070: 0000 0000 32c1 88bc 242c c73c 0000 0000
00000080: 21ff c33c 8c62 a1bc 1087 c53c 0000 0000
00000090: 1a22 c53c 0000 0000 0000 0000 706e 01bd
000000a0: 29b5 643b 0000 0000 0000 0000 beda c43c
000000b0: c568 afbc d816 c23c 4084 c03c 0000 0000
000000c0: 8114 c1bc 058a ecbc bf84 c43c 0000 0000
000000d0: a500 c53c 8591 dcbc 6c19 d6bc 0000 0000
000000e0: 0000 0000 0218 c53c 0000 0000 3352 bc3c
000000f0: 5591 c33c 6053 be3c b7bc 97bc 830f 07bd
0.024951927 -0.0149984155 0.0 -0.025018683 -0.028711893 -0.024360562 0.0 0.0
0.0 -0.008110783 -0.011768665 0.024028443 0.0 0.024029087 0.0 -0.011160482
0.020059621 0.0 0.0 0.024079658 -0.0051160767 0.0 -0.024337813 0.023602763
-0.0051614144 -0.01061587 -0.0173195 0.0 0.0 -0.016693685 0.02431304 0.0
0.023925366 -0.019700311 0.024112254 0.0 0.024064112 0.0 0.0 -0.031599462
0.003489802 0.0 0.0 0.024030086 -0.021412263 0.023692533 0.023500562 0.0
-0.023569347 -0.028874407 0.02398908 0.0 0.024048159 -0.026924858 -0.026135169 0.0
0.0 0.0240593 0.0 0.022988414 0.02387301 0.023233116 -0.018522603 -0.032973778

sequential/dense/MatMul/ReadVariableOp:0 f4 [2, 64]
00000000: d05f afbc 0a1d 423e c52a 4b3e eb1b d13d
00000010: 8cdb 9e3c f752 613e bb10 8e3b d50f 19be
00000020: c0cf 2f3e 80c6 3fbd 3627 10be ee66 c33d
00000030: b982 31be 2bb8 3fbe e033 17be 246c 2d3e
00000040: feba 35be e044 f4bc 29c3 93be 655b d23d
00000050: 5a67 dfbd ed04 853e 3b07 593e 5861 cebd
00000060: 5a6e d73d 4c08 88bd e9b6 1ebd 3edf f93d
00000070: baf7 07be 34b4 a13e cd0b 9e3e a029 4ebe
00000080: dc4e 6cbe 9eb0 7c3d a7ae 8f3e 8c11 53bd
00000090: e0a7 563d 8013 97ba c26f a23e c5aa 8fbe
000000a0: 68cb 233e c835 05be 738e 943e 31d6 a23c
000000b0: dc47 e9bd 76f1 543e 30df c1bc 0b32 983e
000000c0: 2bdc 4fbe 23d9 90be 44ed f83d 3822 26bd
000000d0: d50a 0e3e d85c 58bd 65ca 70be 881c 793e
000000e0: 5963 473d 4227 4d3e 3828 c9bd 5bbf 153d
000000f0: 42de 603e 6308 be3c fb6b 813e d0db 2d3e
00000100: 4d6c 22be 1faf 753e 6694 493e 127a 4ebe
00000110: 798d 613e 6b0e fdbc 7cec 1d3e 75a6 54be
00000120: 21fa a43e 7c5e d2bd b3ce 263e f53e d8be
00000130: e77b 8d3e d942 88be d734 22be 2041 65be
00000140: 7933 8fbe 582a abbd 6629 97be 84da 8cbe
00000150: d49a 95be 8f73 13bd 96ca e8bd 6c0d 4abe
00000160: 76f6 853e ec0f 2bbe 266e 9d3e f8b7 013e
00000170: 98c6 1e3e 8cbe 903e 5d5d a5bd 1866 963d
00000180: 7354 93be 7e70 8e3e 135c 87be 32ad c4bd
00000190: fb9c b93d f82b 35be 31c2 803e cc24 90be
000001a0: 4041 173e f4dc 6fbe db6f ac3d 3c68 893e
000001b0: 3212 98be 4002 5f3e f85b 18bd 96ca 72bd
000001c0: 774f 103d 83fb 91be 26c7 08be e8da 37bd
000001d0: 72f8 843c 1fbb 8cbe 9c0f 2a3e d828 c7bd
000001e0: f023 453d 98a9 943e a6ce a1bd d569 acbd
000001f0: 3cfc 8a3d 1352 0a3e 0b62 19be 267b 09be
-0.021407992 0.1895639 0.19840534 0.10210403 0.019391797 0.22004305 0.0043354905 -0.14947446
0.17169094 -0.046820164 -0.14077458 0.09541117 -0.17335023 -0.18722598 -0.14765882 0.16935784
-0.17747113 -0.029817998 -0.28859833 0.102713384 -0.109083846 0.2598032 0.21194164 -0.100771606
0.10519095 -0.066422075 -0.038748655 0.12200783 -0.13278094 0.31582797 0.30868378 -0.20133066
-0.23076957 0.061691873 0.28062937 -0.051530406 0.05240619 -0.0011526197 0.3172589 -0.28059974
0.15995562 -0.13008797 0.2901493 0.019877525 -0.11390659 0.20795235 -0.023665994 0.2972568
-0.20298831 -0.28290662 0.1215463 -0.040559977 0.1387132 -0.052822918 -0.23514707 0.2432729
0.04867873 0.20034507 -0.09822124 0.036559444 0.21959785 0.023197358 0.25277695 0.16978383
-0.15861626 0.23992585 0.19685516 -0.20163754 0.22026624 -0.030890664 0.15422243 -0.20766623
0.32222083 -0.10271928 0.16289787 -0.42235532 0.27633592 -0.266135 -0.1584047 -0.22388124
-0.27968958 -0.08357686 -0.29523772 -0.27510464 -0.29219687 -0.035998877 -0.11366765 -0.19731683
0.26164597 -0.16705292 0.307481 0.12667835 0.15505445 0.28270376 -0.08074448 0.073436916
-0.28775367 0.278202 -0.26437435 -0.09603347 0.09063145 -0.17692554 0.25148156 -0.28153074
0.14770985 -0.2342413 0.08419772 0.26837337 -0.29701382 0.21778202 -0.037197083 -0.059275232
0.035232034 -0.285122 -0.13357219 -0.0448865 0.01623175 -0.27486512 0.16607517 -0.09724587
0.048129976 0.2903564 -0.07900743 -0.08418623 0.06786391 0.13507871 -0.14978807 -0.13425884

sequential/dense/BiasAdd/ReadVariableOp:0 f4 [64]
00000000: 0000 0000 79a8 ae3c 791f c53c a20a 15bd
00000010: 7fed b13c d16e c0bc a5f7 dabc 0000 0000
00000020: a9b4 993c 0000 0000 7fc5 03bd 55d6 81bd
00000030: 3bbc a7bc 0000 0000 0000 0000 5365 2a3c
00000040: 0000 0000 0000 0000 0000 0000 9a2a febc
00000050: 0000 0000 f323 19bb fef6 413c 0000 0000
00000060: f172 d7bc 0000 0000 c72a 34bb a65c 2f3c
00000070: 11d7 863c a719 c43b 2006 e93c edaa 8fbc
00000080: 0000 0000 9e18 cd3c c8c6 1cbc 0000 0000
00000090: b5cd cdbc 1621 a9bb 5870 ad3c 0000 0000
000000a0: 4598 943c 0000 0000 aef0 5a3c 16cb fbbc
000000b0: 0000 0000 1f5f e63c 0000 0000 170a f739
000000c0: f93b cebc 0000 0000 056b dcbc 0000 0000
000000d0: 7368 d9bc 0000 0000 7c43 debc fece 09bd
000000e0: 7558 c13c 4d43 c23c 0000 0000 cf44 163b
000000f0: 75ec c4bc ee30 883c 93cc 63bc 1a04 eabc
0.0 0.021320568 0.024062859 -0.036387093 0.021719692 -0.023490341 -0.026729414 0.0
0.018762903 0.0 -0.03217077 -0.06339709 -0.020475497 0.0 0.0 0.010400134
0.0 0.0 0.0 -0.031026173 0.0 -0.0023367375 0.011838673 0.0
-0.026299926 0.0 -0.0027491318 0.010703241 0.016459974 0.0059845033 0.028445303 -0.017537558
0.0 0.025036152 -0.0095688775 0.0 -0.025122503 -0.005161415 0.021171734 0.0
0.018139014 0.0 0.013363047 -0.030736487 0.0 0.02812153 0.0 0.0004711903
-0.025175082 0.0 -0.0269065 0.0 -0.026539063 0.0 -0.027131788 -0.03364467
0.02360175 0.023713732 0.0 0.0022929197 -0.024038533 0.016624894 -0.013903755 -0.028566409
